models/nnlm_model_epoch1.ckpt (torch, 246427 bytes, 5 tensors)

b1 f4 [2]
00000000: b081 743f 39d5 7a3f
0.9551039 0.979816

weight f4 [7613, 2]
00000000: 34e5 5cbf f3b1 a83e 4a19 303f 9453 37be
00000010: 1710 9c3e 71a1 82bf dee1 babf c023 6d3f
00000020: 49b8 6a3f 1424 3c3f 2b2d d2be 42ad c43f
00000030: 45b4 d53d 2de7 1a3f 62f0 20bf b252 fe3e
00000040: 4a4d c53f d66f a23e 4f81 033e 1467 0f40
00000050: a3bb 3dbe 205b 8ebf 0bcc aabf e8de cbbe
00000060: d736 99bf 1e1b 8c3e 2a5e 183f 8311 233f
00000070: f4e8 febd 265b c1bf 80e5 4b3f 3bf8 95bf
00000080: 8e0e 8b3d 1198 9e3d dd70 953e 0dbf 8d3f
00000090: 6a6b 6fbf 4163 f5bf c470 7a3f b67e 25bf
000000a0: 8101 8b3e c9f3 9ebe 9e9e a6bf e848 83bf
000000b0: 0950 e7bd 1866 ebbe ad56 72bf 8272 fc3e
000000c0: 75e7 a2bf df86 70bf 6548 073f f6af ca3a
000000d0: 9b48 ea3f 3fe1 82bf 43c7 433f 8220 b13e
000000e0: edb6 553d 4808 743d 2e50 953f ac24 cf3d
000000f0: f4dc da3f dd07 bebe 000c 133e 1c78 a23f
00000100: 06f2 8f3d 13df 7b3e 79b3 ae3f 7219 c23f
00000110: 1f02 47bf 3d93 6a3d 7fba 90bf 6a38 483f
00000120: 7f5f d0bf 819a d6be 926b d0bd 4c34 e03e
00000130: 50a0 1f3f 4f54 d7bf 01bb fdbe 7e1e 3d3e
00000140: 364f 89be e4e6 73bf 594b ecbf 07b0 dbbe
00000150: 7ee6 843c 2a4f ecbd 4355 0cc0 b986 b1bf
00000160: 7aa0 3e40 5b12 8c3f 5f59 38bf 98b4 353e
00000170: 5a1b 8c3f a4c8 c13e 3bfa 94bf 6bb5 363f
00000180: e25b fbbf 3dff b73e 14bf 61bf a0e0 5340
00000190: a7ab 26bf b42d d7bd d493 413f b257 483f
000001a0: f474 d4bf 78bd 493f df0c 46bf 026d 6f3f
000001b0: bc82 49bb 55ee 6abf 5e02 1ac0 e63f 62be
000001c0: a247 2c40 11d6 dcba 1b71 28bf 4689 863f
000001d0: f5d2 d4be 9793 2cbf d87a 16bf 7b95 5a3e
000001e0: 672b b83f 60be 193f 09ff 04c0 2a83 a9be
000001f0: 4de8 b53f 5f4c 383e de32 14c0 6c53 e5be
00000200: 80e0 4ebf 694d 78be 21a1 8d3f 1487 2e3f
00000210: 3514 6f3d 336e d2be be16 cebe e129 afbf
00000220: 574d 0f3e 1755 8abe 0d3f 563d 25e9 97bf
00000230: 602b 373e 94bf 623f 5bc1 5b3e 5e7a f5be
00000240: cc4a f23f 18d3 8c3e 9d17 8d3e 153a febf
00000250: 1959 aabf b6a4 b93e 7c92 cabe 96f1 b53e
00000260: 7efa 93be a1ff ddbe 8363 963e 8a72 763f
00000270: 3411 d5bf 3963 33c0 436f 82bf 02f1 1ebf
00000280: a43d b5be 25c9 c5be 517d c3bf 6fa9 bdbe
00000290: 6f28 ba3c 1509 ed3e c679 c83f 9874 ebbd
000002a0: 57ae ef3e a74d 2a3d cb8c 963f eaf9 30be
000002b0: c202 68bf 3fd1 19bf 979c 943e 5965 94be
000002c0: 1f32 61be dcd2 ae3e 6dab e23e d0d7 afbf
000002d0: 828e 72be bc61 9a3d ca06 84be 6b26 0dbf
000002e0: 2b5d ad3f 3e6b 543f 752f d03f 2257 98bf
000002f0: af5e 88bf 85c9 b13e fe00 b0bf e9e2 453f
00000300: bc57 a5be 1eda 0c3f 88d9 3ebf f9ba 903e
00000310: caf6 b23f fd37 aabe 8846 58bf d99a 8fbf
00000320: 46e5 0abe 216c eabe 9ebc 55be 6da3 a9be
00000330: 88bd f8be d492 42bf a88b c03e ec16 883e
00000340: 9310 cabe d490 c3be 7ae6 1040 9de3 ddbd
00000350: 6771 c4bf 1926 01bf ae4b afbe 2cd8 f33f
00000360: 5f72 71bf 3697 ac3f 1f5c 183f 705a cdbe
00000370: 9980 513e a889 6abf 6926 afbf 9da0 1dbe
00000380: 3768 b43f d39a e8be 0081 8abe ccae 0cbc
00000390: 8265 02c0 3bc7 d73f b8da 47bf 7a06 d5bf
000003a0: 9970 13c0 aa13 08c0 dc5f 43bf bb11 d83d
000003b0: 805e dbbe e03b 10bf 814b 303f b899 9f3f
000003c0: 49c3 8dbf 7f18 c1bf 6d90 8cbd 0f5d c33f
000003d0: fd74 08bf 813b 923e 8cb2 d4bd 5ab7 a7bf
000003e0: e874 a73f 857a 6cbf 994b 08bf 4750 813f
000003f0: b625 873f d3dc bc3f 629d e4bf 6b43 6b3f
-0.86287236 0.32948264 0.6878859 -0.17902976 0.30481026 -1.0205518 -1.4600179 0.92632675
0.91687447 0.7349255 -0.41050085 1.5365374 0.10434774 0.60508996 -0.62866795 0.49672467
1.5414212 0.3172595 0.12842296 2.2406664 -0.18528609 -1.1121559 -1.3343519 -0.398185
-1.1969861 0.2736444 0.5951868 0.63698596 -0.12446776 -1.5105941 0.79647064 -1.1716379
0.067898855 0.07743848 0.2918767 1.1073929 -0.93523276 -1.9170915 0.97828317 -0.6464647
0.27149585 -0.31045368 -1.3017156 -1.0256624 -0.11294562 -0.4597633 -0.94663507 0.49306113
-1.2726885 -0.93955797 0.5284484 0.0015463817 1.8303407 -1.022499 0.76475924 0.34595114
0.052176405 0.05957821 1.1665094 0.101144165 1.709868 -0.37115374 0.14360046 1.2692904
0.07028584 0.24596815 1.3648521 1.5164015 -0.7773761 0.057269324 -1.1306914 0.7821108
-1.6279143 -0.41914752 -0.101767674 0.437899 0.6235399 -1.6822604 -0.49556735 0.18468663
-0.26818246 -0.95274186 -1.8460494 -0.42907736 0.016223188 -0.11538537 -2.192704 -1.3869239
2.9785447 1.0943102 -0.7201137 0.17744672 1.0945847 0.3784839 -1.1638864 0.7137057
-1.9637415 0.3593692 -0.8818219 3.310585 -0.6510567 -0.10506764 0.7561619 0.7825881
-1.6598191 0.7880473 -0.7736339 0.9352571 -0.003074809 -0.91769916 -2.4063945 -0.22094688
2.6918721 -0.0016848465 -0.65797585 1.0510643 -0.41567197 -0.67412704 -0.58781195 0.21346085
1.4388245 0.60056114 -2.078066 -0.33107883 1.4211518 0.17997883 -2.3156047 -0.44790208
-0.8081131 -0.2424828 1.1064798 0.6817486 0.05836888 -0.410997 -0.40251726 -1.3684655
0.13994347 -0.27018043 0.052306224 -1.1868025 0.1788764 0.88573575 0.21460478 -0.4794492
1.8929076 0.27504802 0.27557078 -1.9861475 -1.330844 0.36258477 -0.39564884 0.35535878
-0.28902048 -0.43359092 0.29372796 0.9626852 -1.6645875 -2.802931 -1.0190204 -0.620865
-0.3539859 -0.38630024 -1.5272619 -0.3704333 0.022724358 0.46295992 1.5662162 -0.11496848
0.46812698 0.04157796 1.1761717 -0.17282835 -0.9062921 -0.6008491 0.2902572 -0.28983572
-0.21991776 0.34145248 0.44271412 -1.3737736 -0.23687175 0.075381726 -0.2578643 -0.55136746
1.3544058 0.8297614 1.6264483 -1.1901591 -1.0653895 0.3472406 -1.3750303 0.7729936
-0.322935 0.5502032 -0.74550676 0.2826765 1.3981564 -0.3324584 -0.8448262 -1.1219131
-0.13564023 -0.4578562 -0.20872733 -0.33132496 -0.485821 -0.7600529 0.3760655 0.26579988
-0.3946577 -0.38196433 2.2640672 -0.108344294 -1.5347108 -0.5044876 -0.34237427 1.9050345
-0.9431514 1.3483646 0.59515566 -0.4010806 0.20459212 -0.91616297 -1.3683597 -0.153933
1.4094304 -0.45430622 -0.27051544 -0.008586597 -2.0374455 1.6857675 -0.78068113 -1.6642601
-2.3037474 -2.1262002 -0.76318145 0.10550257 -0.42845535 -0.5634136 0.6886521 1.2468786
-1.1075221 -1.5085601 -0.068634845 1.5262774 -0.5330351 0.28561023 -0.103856176 -1.310283
1.3082552 -0.9237445 -0.5324035 1.0102624 1.0558383 1.475489 -1.786053 0.91899747

weight f4 [2, 4]
00000000: 8373 aa3c 5f85 65be 1c6d 9c3e a4b4 cf3e
00000010: 4136 ad3b b3cc 743e a579 c3be e9c3 913d
0.020807033 -0.22414158 0.30551994 0.40567505 0.0052860086 0.23906212 -0.38178745 0.07117445

weight f4 [7613, 2]
00000000: 9144 c83c 7eca 86bd 130a e13e ea7a e73e
00000010: da61 4b3d 4b13 d13d 690c f83e 6617 bf3e
00000020: 9f22 99be 4222 ff3e e371 c73e 8112 003f
00000030: 78db fe3e cf45 163f 18fb 823e 1db4 5c3e
00000040: ea88 6f3e 7b1e 98bd 0ba8 1fbf ac0d 3d3f
00000050: 11fb c7be e405 aa3e 4ec7 08bf d924 fc3e
00000060: 1a0b 52be 95ad 313e 4136 003f 9828 0f3f
00000070: 88df 84be 7c1f d13d 3d06 24bf 60a9 51bc
00000080: 9e95 03bf 730f 1ebf 5eed 093f a7d2 1a3e
00000090: 05e6 dbbe fc31 9e3e 321a 4a3e 2046 f0be
000000a0: cd8b fdbe 3038 e2bd e7d9 df3d 2367 e13d
000000b0: 60d3 193f c1b6 2fbf 639f 2dbe cbb8 9abe
000000c0: e2cb 33bf 529c efbe f6e7 5b3e 4d78 14bf
000000d0: 8d2a 4ebf 8d18 fb3e 6144 3dbf 989a 863e
000000e0: 0515 d43e 6ae7 9bbd 17eb 10bf 2e10 e43d
000000f0: c2db f13e 2977 103f 81ba d63e 1b4b 2bbf
00000100: d432 0a3f 5a4b 8b3e dd6d 0ebf 585f 80bd
00000110: 7bcf 2dbe acb3 c33e e162 933e d118 9d3e
00000120: 0e14 f5be 1d2a 13be 6f75 3b3f 370b 94be
00000130: 17eb 5dbe 1efb c9be 55b1 d0be 3e41 cc3d
00000140: 41dd 9a3e 686d 4e3f 92eb 58bc 6870 963e
00000150: 873a 2b3f f8c0 05be 3e5c bd3e bed4 cd3d
00000160: 3e30 bdbe da32 1fbf 9d22 19be 369b 8b3e
00000170: caa1 f43e 922f 15be 1dfd 3cbf 2504 0ebf
00000180: f174 9c3e 1f86 16bf b805 6e3e 3b82 8fbd
00000190: 637f e0be 2dbe 833d 3d53 28bf 4619 953e
000001a0: 9825 37bf e826 2bbf dd18 363e f06c 993e
000001b0: 7f6a b1be 167f a93e 2bf3 d2be 17e5 de3e
000001c0: cff3 13bf ab7c fc3e bb91 3c3f 3a68 323f
000001d0: 4406 fbbe fd5b 06bf 2132 693e 6194 f5be
000001e0: 0f9f e93e 894d 053e a6ef 403e ab43 9cbb
000001f0: eb7a 3abe f9d2 1a3e e237 ddbe 5ab0 d83d
00000200: e7d1 623e 2953 07bf 3a76 e8be 06e7 aa3e
00000210: 5396 39bf 63fb 26bf 08b1 113f 9e24 093f
00000220: 1b0e 0fbf 14b6 2a3e 0817 923e c831 afbe
00000230: e936 99be acf5 013f c41b 233f c72f 143e
00000240: b0d3 4f3e d4fb cabe 5a5b 5a3e 0b78 153f
00000250: f534 da3d 87a9 1b3e f0fb cdbe 4649 ac3c
00000260: df11 f2bd e713 91bd cc50 27bf 9aa0 b03e
00000270: 3d81 4d3d 9662 d1be e0b3 073f b50e be3e
00000280: 1369 2bbf 6c30 6ebd d7b9 89be ed88 953e
00000290: 5703 2dbe 3fb1 b2be 366b 64be 921b f73e
000002a0: 99a1 43bf 07b9 d0be 135e 15bf f8d9 6fbe
000002b0: 1d3a 6abd 44aa 3bbf ab8e 84bd 3eee bdbe
000002c0: 44bf 94be 16fe 573e 003b 823d e185 963e
000002d0: e70d 12bf 6c72 e33e bb94 1abf cd0f 743d
000002e0: c771 adbe 8880 2d3d dd2f a2be 1ff2 76be
000002f0: 9a67 51bf 73f2 0b3c 84cf e9be 2272 ea3e
00000300: b815 ae3d 3275 fb3e 5613 d5be f2c4 593e
00000310: d071 833e 5553 f2be 4ab0 513b 198e 0c3f
00000320: f557 e7be 2eac b4bc 271e 12bf e0bc 483e
00000330: c99b 87be fca6 af3e c894 493e 0012 ab3e
00000340: 491c babe ce94 843d 1ca5 0abf 7f38 19bf
00000350: e6fc a3be 370e ce3e 1bec 75bd 054e 15bf
00000360: b6dd 083f 9116 82be 0a34 d93e 41f8 dc3d
00000370: 4685 103f 6e1b 51be 189d 24bd b6aa 45bc
00000380: 3420 a13e 9c11 7cbe dedc c3be dc43 16bf
00000390: 8aea 013f 26a8 933e 2b79 253e ddfd fd3e
000003a0: c269 30bf cbc8 54be c126 28bf 48af b8be
000003b0: e2e8 b5bd 778c 483e 559a 30be fab7 56be
000003c0: 0e43 ec3e a85f 02bf 38c7 2bbf 3498 b9bd
000003d0: 60c6 94bd 5e30 5cbe 098d 213f d208 77be
000003e0: 1ab7 e2be 0e6e bb3e 5bde c63e a797 e73d
000003f0: dce4 5ebe 794c 0c3f 86dd 98be 4039 59be
0.024446758 -0.06581591 0.43953 0.45210963 0.049653865 0.10208758 0.48446968 0.3732254
-0.29909226 0.49830824 0.38954076 0.50028235 0.49776816 0.5870027 0.25582194 0.21553083
0.23392072 -0.07427689 -0.6236579 0.73848987 -0.39058736 0.3320762 -0.53429115 0.49246863
-0.20512047 0.17351373 0.50082785 0.55921316 -0.2595179 0.10211083 -0.6407202 -0.01279673
-0.5140017 -0.61742324 0.5387782 0.1511942 -0.42948928 0.3089751 0.19736555 -0.469285
-0.49520722 -0.11045873 0.109302334 0.11006 0.6008816 -0.68638235 -0.16955332 -0.3021911
-0.70232975 -0.4679895 0.21475205 -0.57996064 -0.8053368 0.49042168 -0.7393246 0.2628982
0.41422287 -0.07612498 -0.5660872 0.111358985 0.47237974 0.56431824 0.41939166 -0.66911477
0.5398381 0.27205926 -0.5563639 -0.062681854 -0.16973679 0.38223016 0.28786376 0.30682996
-0.47866863 -0.14371534 0.73226064 -0.28914806 -0.21671711 -0.394494 -0.40760294 0.099733815
0.30246928 0.8063569 -0.013239758 0.29382634 0.6688618 -0.13061893 0.36984438 0.10050343
-0.36950868 -0.6218697 -0.1495461 0.27266854 0.47779685 -0.14568928 -0.7382372 -0.55475074
0.3055797 -0.587984 0.23244369 -0.07007261 -0.43847188 0.064327575 -0.6575201 0.29120845
-0.7154174 -0.6685624 0.17782922 0.29965925 -0.34651563 0.3310477 -0.41201147 0.43534157
-0.577939 0.49313864 0.7365987 0.6969029 -0.49028218 -0.5248411 0.22773029 -0.47964767
0.45629165 0.13017859 0.18841419 -0.004768809 -0.18210952 0.15119542 -0.43206698 0.105805114
0.22150384 -0.5286127 -0.454027 0.33379382 -0.72495 -0.65227336 0.56910753 0.535715
-0.558809 0.1667102 0.28533196 -0.34217668 -0.29924706 0.5076549 0.6371424 0.1447135
0.20295596 -0.39645255 0.2132391 0.58386296 0.10654632 0.15201388 -0.40231276 0.021031033
-0.11819815 -0.07083874 -0.6535766 0.3449753 0.05017208 -0.40895528 0.5300884 0.37120596
-0.66957206 -0.058151647 -0.26899597 0.2920603 -0.16895805 -0.34900853 -0.22306523 0.48263222
-0.76418453 -0.40766165 -0.5834667 -0.23422992 -0.057184327 -0.7330668 -0.06472524 -0.37095827
-0.29052174 0.2109302 0.063589096 0.29399016 -0.57052463 0.44423234 -0.60383195 0.05958538
-0.33875868 0.042358905 -0.31677142 -0.241158 -0.8179871 0.008541691 -0.45666134 0.457902
0.08500236 0.4911285 -0.41616315 0.21266535 0.2567277 -0.47329202 0.0031995946 0.54904324
-0.45184293 -0.022054758 -0.5707726 0.196033 -0.26486042 0.34307086 0.19685662 0.3341217
-0.36349705 0.06473695 -0.54158187 -0.5985183 -0.32028884 0.4024522 -0.06003962 -0.58322173
0.53463304 -0.25407842 0.42422515 0.10789538 0.5645336 -0.2042062 -0.04018888 -0.012064626
0.31469882 -0.24616092 -0.38254446 -0.58697295 0.50748503 0.28839225 0.16159503 0.49607745
-0.68911374 -0.20779721 -0.65684134 -0.3607123 -0.088823095 0.19584833 -0.17246373 -0.20968619
0.4614491 -0.5092721 -0.6710086 -0.090622336 -0.072643995 -0.21502826 0.6310583 -0.24124458
-0.4428032 0.36607403 0.3884152 0.11308222 -0.2176699 0.5480419 -0.2985651 -0.21213245

weight f4 [7613, 4]
00000000: 9b19 813e 60ac e7bd 3a6d a83b dfac aabd
00000010: af96 92be 1310 453e b397 023d f258 743e
00000020: 6b39 cbbe 3cba a03e 0bda 5b3c 069d fd3b
00000030: bc3f 02be becd 5fbe dd33 9cbe 7604 003f
00000040: f42d 9dbe 3675 77be ff86 a73d 143a ddbe
00000050: ff05 e83e 73a8 04be b481 07be 8346 c9be
00000060: 0627 0e3e 51d2 8e3d 395a cb3e 1e77 4f3e
00000070: 8e91 d7be 9cb9 b13e 92b3 1f3e 4ae2 bdbd
00000080: e6fb a4be 2ecd b83c 8840 d4be 75b4 743e
00000090: 3673 a7be 9fca e93e f1d1 90bd 9958 7ebe
000000a0: b91c c6be f1f8 083f 1dc3 7aba c126 e53e
000000b0: 5c6e 64be c451 ccbd aecb 1abd caa3 50bd
000000c0: 40e0 99be 4997 4b3e 770d 99be 19aa 8a3d
000000d0: 8b5b a63e 7bba ebbd a35e 503e 3785 c9be
000000e0: b31f b13e 2932 80bd edc6 0e3e bd8a 06be
000000f0: 4353 433e 2ee3 37be 99cb 933e a35c 73be
00000100: 597b 993c 5721 cd3d af16 f1bd 547e e93d
00000110: b25d a03e 7ca3 2bbe 6bda bd3e 4526 bbbd
00000120: 6794 8c3e 1883 30be d1cf 85be 6ca9 a93e
00000130: 7754 b9be 5737 553d 703f eabd 7a86 65bd
00000140: 8d95 afbc 5b3d abbe c4d3 54be 13b1 58be
00000150: c32a efbd 200b 8dbc 1a80 9c3e 850d a8be
00000160: 4b09 e8bd 9509 6cbe c3ba 1d3e 3d93 da3d
00000170: 919c 55be d10c 243e 9d0f d9bd e404 a03e
00000180: 3686 b93d a1f0 963e cb2a 4ebe a3b6 723d
00000190: 6e43 6d3d 2aae 653e d758 483e 1d5d bc3d
000001a0: e25f 0f3e 2e16 9f3e 9641 fa3b a8e9 133e
000001b0: f1f5 e13e 3c1d 423e cfd7 b43d 99f4 b13e
000001c0: a978 ea3e 7fb4 de3e 0487 d73e 8db7 cabe
000001d0: a283 0f3d 69a2 a7be 0c06 9b3e a822 80be
000001e0: 68ef 843e 105b 9f3e d289 a63c 17fb 0b3e
000001f0: e644 0bbe b15b 163e 44da 513e c260 56be
00000200: b6ed 773e 9fe5 0d3e 9a0b 2dbe 71fd 7ebe
00000210: 6757 c43d d4d9 31be bb2e b93d 763e 743d
00000220: 94ac 86be 204a 46be d087 033e faed aebd
00000230: b8a5 9b3b 8fce 033e 38e4 8f3d ff5e 62be
00000240: 3cc7 283e 0004 803d 21ca 63bd 23fd b1bb
00000250: d356 d73b dbb8 b3bd 8d7b 9d3e 611c 993e
00000260: 9785 22be bea6 83bd 0a24 663e ed81 85be
00000270: 0724 313d 040d 0dbe 1166 ed3d f3b0 f03b
00000280: a7b4 383e 6966 463e 3b55 6ebd 8ea7 16be
00000290: 9ccd db3b 9a5d a23d 7753 72be 3d7d 793e
000002a0: 9c10 84be 1295 0ebe baa1 8dbe 6852 58be
000002b0: 7e33 8bbd 4120 493d 4163 91be 6fcf bc3e
000002c0: 69ad a0be cd12 a23e ac38 b7bd 005c 8abe
000002d0: bdf2 893c ac3a 8c3e b352 acbe 86c3 9bbe
000002e0: b1c6 3c3e 98d4 c53c 27c3 99bd 56d5 95be
000002f0: 7cfe 723e 6619 c73e 34a1 bebe 71c7 64bc
00000300: 4ae4 ce3c cdde 49be 53f1 62be 776e 793e
00000310: a829 c0be 7d71 913e 7873 cbbd 66f7 3f3e
00000320: 91fd 57be 2000 d83e 43cf ad3d 0ed6 e33e
00000330: 0d35 3b3e d561 383d 4c17 87bd ea3e 4fbd
00000340: f8c1 dbbe fd47 dc3d a1f3 c03e 6596 25be
00000350: d19c b13e 1367 0a3e 270b b63e cbab cd3e
00000360: c6da af3e 86b1 86bd 2e9f b43c 7c68 a6be
00000370: e62e 9abd 217e fcbd 20a6 223d 9412 913e
00000380: ffb6 4abd 8642 b8be 4dfa a1be 9b13 3cbe
00000390: 7c88 a1be faff 3cbe 8647 96be d6a6 f2be
000003a0: e0ff babd 8027 ecbe 03dd 90bd 9358 f43e
000003b0: 4662 7d3e b2a7 afba 5c5c 303e c606 57be
000003c0: cf14 363e 5fea 97be 5e02 9a3e 50cd 21bd
000003d0: 8535 ef3c d48f d1be be44 c93e 1272 c2be
000003e0: 898d b73d 7d09 053e 0027 c93a e335 96be
000003f0: 0329 90be 6ced 95be c513 d03d f0e3 be3d
0.25214848 -0.11312175 0.005139974 -0.08333754 -0.28630587 0.19244413 0.031882953 0.23862055
-0.39692244 0.31392086 0.013418685 0.007739666 -0.12719625 -0.21855828 -0.3050832 0.50006807
-0.30699122 -0.24165806 0.08180045 -0.43208373 0.45317075 -0.12954883 -0.13233072 -0.3931161
0.13882074 0.069737084 0.39717272 0.20260283 -0.42103237 0.3471192 0.15595844 -0.09271677
-0.32223433 0.022558775 -0.41455483 0.23896964 -0.32705086 0.456624 -0.07071293 -0.24838485
-0.3869379 0.53504854 -0.00095658173 0.4475613 -0.22307724 -0.09976533 -0.0377919 -0.05093745
-0.30053902 0.1988193 -0.29893085 0.06770725 0.32491717 -0.11510178 0.20348601 -0.39359447
0.34594497 -0.06259567 0.13943072 -0.13138862 0.1907473 -0.17957756 0.2886627 -0.23765807
0.018735575 0.10016125 -0.11771905 0.11401048 0.31321484 -0.16761583 0.37080702 -0.09138159
0.27456972 -0.17237508 -0.26135114 0.3313707 -0.36197254 0.05205473 -0.11437881 -0.05603645
-0.021433616 -0.33445248 -0.20783907 -0.21161298 -0.11678078 -0.017217219 0.30566484 -0.32822815
-0.113298975 -0.2305053 0.15403275 0.10672615 -0.20860507 0.16020514 -0.10598681 0.3125373
0.09058802 0.2948046 -0.20133512 0.059256207 0.057925634 0.2242972 0.1956514 0.091974474
0.1400142 0.3107161 0.007637213 0.14444602 0.4413295 0.18956465 0.08830225 0.34756926
0.4579518 0.43497083 0.42095196 -0.39593163 0.035037644 -0.32741097 0.3027805 -0.2502644
0.25963902 0.31124163 0.02032939 0.13670002 -0.13600501 0.14683415 0.20493418 -0.20935348
0.24211773 0.13857125 -0.16898957 -0.24901368 0.09586983 -0.17368251 0.09042116 0.05962988
-0.26303542 -0.19364214 0.12844777 -0.08541484 0.00474998 0.12871765 0.07025951 -0.2210655
0.16482252 0.06250763 -0.055612687 -0.0054317876 0.0065716296 -0.08775493 0.30758324 0.29904464
-0.15871273 -0.06428288 0.22474685 -0.26075688 0.04324725 -0.13774496 0.11591733 0.0073453127
0.18037663 0.19375004 -0.05818675 -0.14712355 0.00670786 0.07928009 -0.23664652 0.24364181
-0.25793922 -0.13924053 -0.2766245 -0.21125185 -0.06796931 0.049103025 -0.28396037 0.3687701
-0.313823 0.3165497 -0.08946356 -0.27023315 0.01683938 0.27388513 -0.33656844 -0.3042261
0.1843517 0.024149224 -0.075079255 -0.29264325 0.2372989 0.38886565 -0.37232363 -0.013963566
0.025255341 -0.19713898 -0.2216237 0.24358545 -0.3753178 0.28406897 -0.09934133 0.18746719
-0.21092822 0.42187595 0.08486798 0.44499248 0.18281956 0.045015175 -0.065962404 -0.05059711
-0.42921424 0.10755918 0.37685874 -0.16170652 0.34689954 0.13515882 0.35555384 0.4017013
0.34346598 -0.06576829 0.022048559 -0.3250159 -0.075284764 -0.12328745 0.03970921 0.28334486
-0.049490925 -0.35988253 -0.31636277 -0.18366854 -0.31549442 -0.18457022 -0.29351443 -0.4739291
-0.091308355 -0.46123886 -0.07073405 0.47723827 0.2474452 -0.0013401418 0.17222732 -0.20998678
0.17781375 -0.29670998 0.3007993 -0.039502442 0.029200325 -0.40930045 0.3931026 -0.37977654
0.089625426 0.129919 0.0015346706 -0.29337987 -0.2815629 -0.292827 0.10160021 0.093208194
