models/nnlm_model_epoch100.ckpt (torch, 246427 bytes, 5 tensors)

b1 f4 [2]
00000000: 5d1c 2440 3bfa 2b40
2.5642312 2.6871479

weight f4 [7613, 2]
00000000: 369a 863e 2400 1740 8335 a03f b6e2 3c3f
00000010: e1cf 3ec0 07ba 00c0 89b5 c1c0 f2d8 fcbf
00000020: f7c6 dc3f 8c93 09c0 b15b 183f 5085 b83f
00000030: 3aed 073e 56f5 f13f 3364 6f3e 1ebc 5840
00000040: 809f 923f 28c5 ed3f 7e48 293f 914a bc3f
00000050: 5d47 1b3f 9ce4 1740 e8a7 0d40 c2ae 1b40
00000060: 70ad 113f 3307 89bc a306 4abe c1ce 883e
00000070: 45c0 153f df99 14bf 73dc df3f f36d 8840
00000080: 0674 373f 4fb4 bebe 4bd4 49be 63e2 06c0
00000090: 01dc 4dbf 93d7 6fbf 83a3 233f e51f afbf
000000a0: 4880 76bf 55da b4bd eac1 08bf 3586 983f
000000b0: d9f1 afbf 64ed a0be 1926 80bd 7a9c 86bf
000000c0: eb46 2a3e 8c5f 65bd 18d9 ca3f 2f3e 5e3f
000000d0: fb05 073e 3c7f fcbf d6a3 97bf 374d c03e
000000e0: 6e36 1ec0 f28e 5abf 4ac1 0340 6f40 65bf
000000f0: 19f8 743e f1cf 6fbd 6d24 e1bf 3df2 db3f
00000100: 38cf 873f b550 853f 7c6b 01c0 e6ea 42bf
00000110: dd0d 8a3e 33ea e23e 556b 093f f9a5 f23f
00000120: 6f98 013e 1902 033f 176b 04c0 b6af bcbf
00000130: a27e 273f 3253 09bf 8cfe b3bf 3db7 2abe
00000140: 8b5b 1040 6638 2540 66f1 13c0 e192 d3bf
00000150: 045a d43f 12da 653f 977b 593f 5830 1ebf
00000160: d709 f83d d547 223f 6a70 b53e 8806 793e
00000170: ce73 283f 1ac2 ecbe f23c 9abf 4761 27bf
00000180: 3e78 0dbe 6997 253f b019 a63f 333a cabf
00000190: 3ac8 623f 6d9d aebf a51f 6dc0 62e7 cd3f
000001a0: 45ed 56bf b25d 2240 6ed3 11c0 4fa5 863f
000001b0: b4ee 883e 66d6 bf3d d11d 5a40 b02a 9f3f
000001c0: 5102 d5bf 45c2 69bf 5f3f 7ac0 b10b 653f
000001d0: c7c2 0bc0 7106 1040 4d38 a7bf baec 123f
000001e0: f67a b7bf 24f0 983c 5bc6 83bf 3bad 2fbe
000001f0: 7f45 14be 9e03 3540 0c8a fd3e bfb6 0640
00000200: 3cee 5fbd 75fd 933e ea63 c93d 3fb3 403f
00000210: e180 443f 4671 1540 bb28 cc3e f54c fe3e
00000220: a3b3 21bf 2970 9b3f fdbc b23e 0b2e c9be
00000230: 3dff 9abf aa5b 123f 8bfa d2bf 1be9 273e
00000240: 860d 12c0 dccf c43f 0204 bc3e 5abd 45bf
00000250: 4f43 9e3f 0e7d 523e 67b2 8abf 9c17 efbe
00000260: f7f5 8e3e 8182 493e af6d 9fbe 4c2c 2bbf
00000270: a02c 4fbe add4 d5bf f8d6 01be b4c4 243f
00000280: 4918 af3e 4045 4640 f249 cb3e 62f0 07be
00000290: 92b7 f5be bcfc bfbf 1684 2c3d 9a2a 7dbf
000002a0: 6872 f63e eb50 4fbe 971c f4bf d372 cdbf
000002b0: 7630 c33f 6369 573f 86a2 52be 7123 6fbe
000002c0: ea69 7d3d bb82 bc3e d15c 9c3f 8a33 96be
000002d0: 4d1a 9dbf 6178 fc3e 2e41 d83e 217c c6be
000002e0: f97a 44be 695b 2540 2220 36bf edcd 623f
000002f0: cb50 92be 062d e3bf 7ab4 543f 24d0 cb3e
00000300: 5379 13bf c4da c33f 027a 9fbe 4f7a 523f
00000310: 056d a8bf 8cd6 203e 4d42 4dbf 9a6b e23e
00000320: 62c4 21bf 69a0 23bf f73d bbbf d551 e53f
00000330: 247d fbbe fe87 583f 2e24 a7bf 3365 b03f
00000340: 1b18 5a3f 6f41 edbf c458 153f 7065 8d3f
00000350: 1f6a 6ebf 83af 46bf 3704 05c0 55fe 2e40
00000360: 4103 c8bf 3055 25bf 7939 123e 34fa abbe
00000370: 7f05 ad3e 5f0d 903d e91a 8f3d 2fc4 08bf
00000380: 7eb4 d83f f03e 95bf 8b10 023f aa81 a43e
00000390: 36b5 453e c113 a73f a609 b53b 8072 753f
000003a0: c680 46bf 13a7 2bbf ee78 2a3e ed1c 303f
000003b0: 5c37 d23f dee9 b7bf 31d1 4cbe c8de 56be
000003c0: a810 d73f b1e1 3d3f ebeb 743e 871c dcbe
000003d0: c994 a13f 3e30 9fbf 92d5 593d 4074 6e3f
000003e0: 42e6 bd3f 6983 6d3f 1767 0e40 8cb8 53be
000003f0: 8dc5 19bf ef91 0940 78a5 26bf 5d7e b03e
0.2628953 2.3593836 1.251633 0.73783433 -2.981438 -2.0113542 -6.05341 -1.9753706
1.7248219 -2.1496305 0.5951491 1.4415684 0.13274089 1.8902996 0.23378067 3.3864818
1.1454926 1.8575792 0.6612624 1.4710256 0.60655767 2.3733282 2.2133732 2.4325414
0.5690527 -0.016727066 -0.19729094 0.2672024 0.58496505 -0.5804729 1.7489151 4.2634215
0.7166141 -0.3724694 -0.1970989 -2.1075675 -0.80413824 -0.93688315 0.63921374 -1.3681608
-0.9628949 -0.08830706 -0.5342089 1.1915957 -1.3745681 -0.31431115 -0.062572666 -1.0516503
0.16628616 -0.055999324 1.5847502 0.86813635 0.13185875 -1.9726329 -1.1846874 0.3755891
-2.4720721 -0.8537437 2.0586724 -0.8955144 0.23922767 -0.058547918 -1.7589241 1.71833
1.0610113 1.0415255 -2.0221853 -0.76139677 0.26963702 0.44319305 0.536794 1.8956901
0.12655805 0.51175076 -2.0690362 -1.4741123 0.654276 -0.5364257 -1.4062057 -0.16671462
2.2555873 2.5815673 -2.3116088 -1.6529199 1.658997 0.89785874 0.8495421 -0.61792517
0.12111252 0.63390857 0.35437328 0.24318898 0.65801704 -0.46241838 -1.2049849 -0.6538281
-0.138154 0.6468416 1.2976589 -1.5799011 0.8858677 -1.3641793 -3.7050564 1.6086237
-0.83955795 2.5369687 -2.2785296 1.0519198 0.26744616 0.09367065 3.4080698 1.2434902
-1.6641332 -0.91312057 -3.9101179 0.89470965 -2.1837633 2.2503932 -1.3064057 0.57392466
-1.43344 0.018669195 -1.0294908 -0.17155926 -0.14479636 2.8283458 0.49519384 2.104904
-0.054670557 0.2890431 0.0983351 0.7527351 0.76759154 2.3350387 0.39874825 0.4966809
-0.6316473 1.2143604 0.34909812 -0.3929294 -1.2109143 0.5717112 -1.648271 0.16397516
-2.2820754 1.5375934 0.36721808 -0.7724205 1.2364291 0.20555517 -1.0835694 -0.466977
0.2792203 0.1967869 -0.3113837 -0.66864467 -0.20231867 -1.6705528 -0.1267966 0.64362645
0.34198216 3.0979767 0.39704853 -0.13275293 -0.47991616 -1.4999003 0.042118154 -0.9889313
0.4813416 -0.20245712 -1.9071225 -1.6050667 1.5249164 0.8414518 -0.2056981 -0.23353364
0.061868586 0.3681849 1.2215825 -0.29336196 -1.2273651 0.49310592 0.42237228 -0.38766578
-0.19187535 2.5837042 -0.7114278 0.8859547 -0.28577265 -1.7748115 0.83087885 0.39807236
-0.57607 1.5301137 -0.31147772 0.8221788 -1.315827 0.15706843 -0.8017929 0.44222718
-0.6319028 -0.6391664 -1.4628285 1.7915598 -0.49118912 0.8458251 -1.3057916 1.3780884
0.8519303 -1.8535594 0.5833857 1.1046581 -0.9313068 -0.7761156 -2.0783823 2.7342732
-1.5625993 -0.6458311 0.14279737 -0.33589327 0.33793256 0.070338 0.069875546 -0.5342435
1.6930082 -1.1659832 0.5080649 0.32130176 0.19307408 1.3052903 0.005524832 0.9587784
-0.7754024 -0.6705181 0.16647694 0.6879414 1.6423144 -1.4368246 -0.20001675 -0.20983422
1.6801958 0.741725 0.2391812 -0.42990515 1.2623531 -1.2436597 0.053182192 0.93146133
1.4835894 0.9277864 2.225042 -0.20675868 -0.60067064 2.149532 -0.65096235 0.34471408

weight f4 [2, 4]
00000000: 897b 02bd 84ba 11be 3e94 913e 5fa0 ecbe
00000010: f3f0 0bbc 314a 0cbe c754 d8be 9f1b b7be
-0.031856094 -0.14231306 0.28433412 -0.46216103 -0.0085413335 -0.13700177 -0.4225218 -0.3576326

weight f4 [7613, 2]
00000000: c204 91c0 b5a9 81c0 7981 6cc0 66d1 7fc0
00000010: dc63 abbe 2a48 63be 0302 3340 a061 133f
00000020: 2895 c53f d38a c03f 8fd6 793f b42b a23f
00000030: 2f64 b0be 6310 f7be 7179 18bf 63bb 943d
00000040: ae08 70be 3add 9fbf db34 cdbe 74f0 b33e
00000050: b79a 0240 5e74 2340 ea1f d6be 77a4 95be
00000060: 0a3e 13c0 0971 72bf ada4 1cbf 8d10 a1bf
00000070: ad68 58bf 447e e1bf cade 48bf 6995 ddbf
00000080: 6508 adbf 703b e1bf ee14 a4bf 77d1 0dc0
00000090: 8535 8ebf 83a3 20c0 3e9b a0bf a8da 41bf
000000a0: 11c1 a1bf dd3a 29c0 c7a2 60bf e45e cabf
000000b0: c5e0 6bbf 8adb 41bf 2da4 1dbf cc91 40c0
000000c0: 1424 89bf 10ab 9cbf 1663 b9bf b28f 90bf
000000d0: f678 8dbf ec8f 30c0 5f28 b5bf c1de d8bf
000000e0: da36 c1be 2f88 bcbf 97b4 70bf acc7 b7bf
000000f0: c532 69bf 587c 10bf 01f5 67bf 014b b7bf
00000100: 42fe 55bf 1558 48c0 ffc7 78bf 0378 51bf
00000110: 8e7e d2bf c9ce 0fbf 6264 9fbf 4652 44bf
00000120: 9621 5540 5eb7 1b40 b366 2540 99b5 0340
00000130: 7916 8ec0 5024 9cc0 f17d 7fc0 51f4 90c0
00000140: 5c42 0d40 2d03 4540 6c25 c6bf c94b 55bf
00000150: f5f1 a3be ebd6 de3e 61a3 8bbf f8ea 5dbf
00000160: 2888 87bf 21d3 b2be 78b9 76bf eef8 7fbf
00000170: 0efd bcbe f263 34bf 6146 33bf 6e8b 47bf
00000180: c08c dfbf c15b 99bf aeb4 f9be 4d9f 47be
00000190: 9814 f0be 3ef3 30bf eb6f 9ebf bf77 10c0
000001a0: 612f 63bf 68aa 43be a8e9 c2bf f02a 14c0
000001b0: fbeb 43be f513 54be fd8e a0bf 6f42 77bf
000001c0: 7b31 51bf 5f2d 9abf 8cf8 cd3f 82f5 d23f
000001d0: ead9 4d3f 86e8 f43e 0ba5 bfbf 8361 34bf
000001e0: 15ab 94bf 381b 5abf 9fd6 04bf f9b0 563d
000001f0: 0276 abbf dc33 84bf 18f4 b8bf db59 b2be
00000200: 007a 9ec0 6bf9 7cc0 60ce 93bf 90db 8dbf
00000210: 28f9 9fbf 4aab 32bf 7024 66bf 48a4 70bd
00000220: 94cb 83bf d2e4 ebbe f1b7 4cbf 601f 8cbf
00000230: fb4d 77c0 661f 90c0 6a6f e1be 207a 81be
00000240: b620 80bf ccbe 67bf fb72 a1be a2c2 d0be
00000250: 6420 90bf 4598 67bf 612e 81bf 0bd1 19bf
00000260: f047 42bf 69a7 efbf ca09 65bf c847 fabe
00000270: 5ec4 92bf a16e 91bf dc79 b6bf 752e 53bf
00000280: be19 90bf 8607 ddbf bd86 c8be 5897 cfbe
00000290: df11 733f e65d 813f a438 073f 3459 253f
000002a0: 712b a1bf 728b 49bf 9c31 32bf 49ec 89bf
000002b0: c5c7 0e3e 4d0b 8ebe 76ba 4b3f df6c 193e
000002c0: ba45 4abe 4ed8 56bf 6080 b0bf b90b 31bf
000002d0: 0848 aebf 297d 42bf 1e36 99bf 0dd8 02bf
000002e0: 7a60 e6bf 176f 52bf eae5 7e3e e1c8 813b
000002f0: 7ce2 a3bf 6c65 c6bf 212b e3bf fd1a 3cbf
00000300: 44e6 9bbf f08a 8cbf 3d2a c0be 6f6c 87bf
00000310: 2b1c aebe a015 a8bf cda7 b5bf d7c4 01bf
00000320: f220 dcbf 801a 58bf 5ba5 91bf f872 65bf
00000330: 1b1f 153f 63c0 9dbe ce45 1ebf 567e fabe
00000340: 5e78 90be 666e 543e f632 adbf 44e9 66bd
00000350: b98f 89bf b9c1 71be 6d8c 3d3d 3800 b23d
00000360: f5f1 193e fe49 ec3e 940f 88bf e4f0 00c0
00000370: a5a3 33bf e395 98bf aa57 063e 4e28 673e
00000380: 3155 52be 3719 23be 921d 54bf 8623 62be
00000390: 3c06 aabe 1dd7 57bf 67af 5fbf 2060 67bf
000003a0: 9071 82bf 2ee0 cebf e18b 023f b416 72be
000003b0: 024b 41bd 494c f8be 5667 07c0 46e1 59bf
000003c0: e2df 72be 5235 4dbf 63f6 a9bf 3d21 e5bf
000003d0: 5c96 a9bf 92d8 59bf d5c9 91bf 8812 f9be
000003e0: 2f19 65bd f6eb 3b3f 8996 a33d 751b 7ebe
000003f0: 5b06 4bbf c711 8fbf 15aa 80bf 34f2 41bf
-4.531831 -4.051966 -3.6954024 -3.9971557 -0.33474624 -0.22195497 2.7969978 0.5757084
1.5436144 1.5042366 0.97593015 1.2669587 -0.34451434 -0.4825469 -0.59560305 0.07262304
-0.23440811 -1.2489388 -0.40079388 0.3514439 2.040693 2.5539775 -0.41821223 -0.2922704
-2.3006616 -0.9470373 -0.61188775 -1.2583176 -0.8453472 -1.7616658 -0.7846495 -1.7311221
-1.3518187 -1.7596264 -1.2818887 -2.2159097 -1.1110083 -2.50998 -1.2547376 -0.7572427
-1.2637044 -2.6442177 -0.8774838 -1.5810208 -0.92139846 -0.75725615 -0.6157864 -3.0088987
-1.0714135 -1.2239704 -1.4483364 -1.1293852 -1.1052539 -2.7587843 -1.4152945 -1.6942979
-0.3773716 -1.472906 -0.9402556 -1.435781 -0.91093093 -0.56439734 -0.9060822 -1.4319764
-0.8359109 -3.130376 -0.9718017 -0.8182375 -1.6444871 -0.56174904 -1.2452509 -0.7668804
3.330175 2.4330668 2.5843933 2.0579588 -4.4402432 -4.8794327 -3.9920619 -4.529824
2.2071753 3.0783188 -1.548017 -0.83318764 -0.32020536 0.43523344 -1.0909234 -0.8668666
-1.0588427 -0.34926704 -0.9637675 -0.9998921 -0.36911815 -0.70465004 -0.70029265 -0.7794713
-1.7464828 -1.1981126 -0.4877066 -0.19494362 -0.46890712 -0.6912116 -1.2377905 -2.2573087
-0.8874417 -0.19107974 -1.5227556 -2.3151207 -0.19132988 -0.20710738 -1.2543637 -0.96585745
-0.81716126 -1.2045096 1.6091475 1.6481173 0.80410635 0.4783365 -1.4972242 -0.7046129
-1.161471 -0.8519778 -0.51889986 0.052414868 -1.3395388 -1.0328326 -1.4449492 -0.3483418
-4.9523926 -3.9527233 -1.1547356 -1.108263 -1.2497911 -0.69792616 -0.8989935 -0.05875042
-1.0296502 -0.46073014 -0.7996817 -1.0947075 -3.8641346 -4.503833 -0.44030315 -0.25288486
-1.0009983 -0.9052551 -0.31533036 -0.40773493 -1.1259885 -0.9046672 -1.0092279 -0.600846
-0.7589102 -1.8722965 -0.8946806 -0.4888289 -1.1466177 -1.1361886 -1.4255939 -0.8249276
-1.1257856 -1.7267921 -0.39165297 -0.40545154 0.94949144 1.010678 0.528208 0.6458924
-1.2591382 -0.787284 -0.6960695 -1.0775234 0.13943394 -0.27742997 0.7958139 0.14982937
-0.19753161 -0.83923805 -1.3789177 -0.6915851 -1.3615732 -0.7597223 -1.196964 -0.5111092
-1.7998192 -0.8220076 0.24892393 0.003960714 -1.2803493 -1.5499701 -1.7747537 -0.7347868
-1.2179646 -1.09799 -0.37532225 -1.0579966 -0.34005865 -1.31316 -1.4191834 -0.5069098
-1.7197554 -0.84415436 -1.1378587 -0.89628553 0.5825059 -0.30810842 -0.61825264 -0.48924512
-0.28216833 0.20745239 -1.3531177 -0.056374803 -1.0746986 -0.23609056 0.0462765 0.08691448
0.15033706 0.46150202 -1.0629754 -2.0147028 -0.70171577 -1.1920742 0.13119379 0.22573969
-0.2054031 -0.15927587 -0.8285762 -0.22083864 -0.3320788 -0.8431261 -0.8737702 -0.9038105
-1.0190907 -1.6162164 0.5099469 -0.23641473 -0.047190674 -0.484957 -2.1156821 -0.85109365
-0.23718217 -0.80159485 -1.3278316 -1.7900769 -1.3249011 -0.85096085 -1.1389719 -0.4864695
-0.05593222 0.7340692 0.07987697 -0.24815162 -0.7930657 -1.11773 -1.0051905 -0.757602

weight f4 [7613, 4]
00000000: 2029 ee3d 5b94 3cbf e98a 2d3e bfae 98bf
00000010: 05d9 f23d cdea 39bf fb8b 023e 8ae0 92bf
00000020: dd53 04bf 1a29 1cbf d1dd 26bf 11e8 183d
00000030: ec26 d5be ab03 b3bd 5e45 82bf 1374 c63e
00000040: 3bf4 93be 13d2 93bd 0bda d8bd d15b 26bf
00000050: 9f8c 113e b4f5 0a3e 386d eb3e 4873 48bf
00000060: 391e a3bd c29a 0cbe ee84 bf3f 4d04 68bf
00000070: 1ed4 a9bd 3871 07bf 25f5 bb3f 4634 3abf
00000080: 3ec8 d5ba f949 86bd 390b d03f 4d3c 7bbf
00000090: 6e3e d8bd 9094 a2be 3d38 e43f f755 16bf
000000a0: f149 343e e349 383e 84a7 373f 8847 95bf
000000b0: 03ed 2fbe a77c 2cbf 6dc0 db3f e7ea 33bf
000000c0: 8e4b d9be cb7d 25bf 2cba f3be d17f d23d
000000d0: e934 9fbe d1f9 03bd 0299 00be 8460 c4bc
000000e0: 1579 4bbe 5f0b d4be 88f5 2e3f 3c05 7d3e
000000f0: a792 b4be d7fe 5ebf 686a 393f 4511 993e
00000100: c508 12bf 2213 b6be 7519 023f ab2e 873c
00000110: 8526 09bf 2b50 14be 7317 e53e c91b 0dbd
00000120: 92c4 06bf 9639 acbd 0139 d43e da5b c5bc
00000130: 9e9b 403e 5673 0e3e 28d8 eb3e fd31 d8bc
00000140: 8fe5 edbe c1ce 713c f400 de3e 915c 363c
00000150: 17fc 343e 374a 233f ad73 6a3e b399 8c3e
00000160: f0a6 443e 0c02 2d3f 85c1 1f3e 0668 17be
00000170: f54f 26bf db39 173e 81e6 d13e 0da6 ae3d
00000180: 9e24 1a3f 2a92 373e 0e8f 16bf cc74 a9bf
00000190: d9e6 30be 3034 c9be f93e 433f b606 80bd
000001a0: dcf5 e9be 5975 323d 54d3 d73e 9f6e 05bd
000001b0: 7a8d c5be becd 903d 2cf9 073f f33d 5fbe
000001c0: fa9e 9d3e 8fd7 8d3e 093b 253f 618d 8dbe
000001d0: e9b2 273f 0b54 373e 5396 c5bd f2e5 efbe
000001e0: af9a a4be 3b84 423d 4092 06bf 7d48 f13d
000001f0: 89e7 d63e 5d58 703d 52f7 9abf 2e46 c9bf
00000200: 12cf e5be 2073 e23c 0e26 cb3e db25 f5bc
00000210: 71db a63d 84e2 99be 3e89 ae3e 7c98 3dbf
00000220: 7650 a03e a48a 78bf 6923 dd3e 21ef f33d
00000230: ca8c 92be 815a 0bbf 8bff d73e 299b 92bd
00000240: 29a7 86bd b807 ff3d b23f 61be 82f9 273f
00000250: 554f 89be e785 f73c a052 c2bf 601c 1bbf
00000260: 3a55 063e fa0c 3cbf aba1 073e 7f31 9bbf
00000270: c7d7 013e 662f 3cbf c907 fe3d 494d 97bf
00000280: dc2c 1cbe 9e5d 79bd 0972 37bf bec5 3e3e
00000290: c960 3fbf f3f2 1f3e 450c 0abf 7dcf cfbe
000002a0: e084 aabe 982a 0e3e 4685 ffbe 1838 21bf
000002b0: 4d09 f23d 6e51 c93e 0b41 38bf 4d36 c9bf
000002c0: 4ea1 c8be a456 5a3e d2e7 28bf 2b9a cebf
000002d0: 2f42 edbe da2c 9abe 16e1 d1be 17a5 9ebf
000002e0: eaf9 abbd 4288 0fbf 8b89 d0be ae71 1fbf
000002f0: 1c8a 033f 06bd 14be 565c 8c3e cd38 0fbe
00000300: f9a6 433e c733 773e 4414 893e c8ac 8d3d
00000310: 2309 e83d 5369 24be ccb5 aa3e a6af f63e
00000320: 1f05 063f b9bf c23e 465b a63e d047 fa3e
00000330: 78a0 0dbf 5d5f 8ebc 09df 003f 2bfa a23d
00000340: 8a05 ef3e 870b 1ebf 67d4 883e ea4a 23bf
00000350: 6b1a c5be d0e2 883c 193f ef3e dce5 723d
00000360: f4c6 39be ed6f 8e3d 4d07 0fbf f86d b43d
00000370: 0238 273f 9f52 ea3d 734c f8be 562d a3bd
00000380: 92df 22bf eb44 253c 4e6a dbbe d782 7dbe
00000390: e78c 81bd 2a68 853d 20a3 27bf b85a 913d
000003a0: 4341 0dbe 69e5 44be f1a2 c5be 9050 47bf
000003b0: d2c7 95be 70c1 98be 7596 dc3e a229 9dbd
000003c0: ece6 edbe 8bef a73d 8887 5d3f e1fb c3bf
000003d0: cddd ab3e ca8d 96be f73b c03e e5a8 dabe
000003e0: 4f41 303f a9e1 81bf caa1 21be 2800 4e3b
000003f0: 3119 ea3e 180b 57bf 50a0 93be 8633 7d3d
0.11628938 -0.7366387 0.16947521 -1.1928328 0.118577994 -0.726239 0.12748711 -1.1474774
-0.51690465 -0.61000216 -0.65182215 0.03733069 -0.41631258 -0.08740934 -1.0177419 0.38760433
-0.2889727 -0.07217803 -0.105884634 -0.6498385 0.14213799 0.13570291 0.45981765 -0.78300905
-0.07964749 -0.1373091 1.4962442 -0.9063156 -0.08292411 -0.52907133 1.4684187 -0.7273601
-0.0016310287 -0.06557078 1.6253425 -0.98138887 -0.105587825 -0.3175397 1.7829663 -0.5872492
0.17606331 0.17996936 0.71739984 -1.1662455 -0.17180257 -0.67377704 1.7168099 -0.7028031
-0.42440456 -0.6464507 -0.47602975 0.10278285 -0.31095055 -0.032220665 -0.12558368 -0.023971803
-0.19870408 -0.41414925 0.683434 0.24709028 -0.35268137 -0.87107605 0.7242799 0.29895988
-0.5704463 -0.35561472 0.50820094 0.016501745 -0.535744 -0.14483707 0.44744453 -0.034450326
-0.5264369 -0.08409421 0.4144974 -0.02409165 0.18809363 0.13911185 0.46063352 -0.026391024
-0.46464202 0.014758767 0.43360102 0.011130468 0.1767429 0.6378512 0.2289569 0.27461013
0.19204307 0.6758125 0.15601166 -0.14785776 -0.64965755 0.14768164 0.40996173 0.085277654
0.60212123 0.17926851 -0.58812034 -1.3238769 -0.17275561 -0.39297628 0.76267964 -0.0625128
-0.45695388 0.043568943 0.42153418 -0.0325762 -0.385845 0.07070492 0.5311458 -0.21800976
0.30785352 0.2770352 0.64543205 -0.27646926 0.6550737 0.17903154 -0.09647813 -0.46855122
-0.32149264 0.047489386 -0.5256691 0.11781404 0.41973522 0.05867802 -1.2106726 -1.5724542
-0.44884545 0.027642787 0.3967747 -0.029925277 0.08147324 -0.3005563 0.34089082 -0.740608
0.31311387 -0.9708655 0.43191078 0.119108446 -0.2862304 -0.54434973 0.4218715 -0.07158501
-0.06574852 0.12452644 -0.21996954 0.65615094 -0.26818338 0.030215217 -1.5181465 -0.6059017
0.13118449 -0.734573 0.13245265 -1.212448 0.12679969 -0.73509824 0.12403829 -1.182046
-0.15251487 -0.060880296 -0.7165838 0.1863012 -0.7475706 0.15620022 -0.5392497 -0.40587988
-0.333045 0.13883436 -0.49906367 -0.6297622 0.1181818 0.39319938 -0.7197425 -1.5719696
-0.39185566 0.21322113 -0.6597873 -1.6140798 -0.46339557 -0.30112344 -0.4099204 -1.2394131
-0.08397277 -0.5606729 -0.40729937 -0.62282836 0.51382613 -0.14525232 0.27414197 -0.13986512
0.19106664 0.24140845 0.26773274 0.06917721 0.11329868 -0.16055803 0.33341825 0.48180884
0.52351564 0.38036898 0.3249151 0.48882914 -0.5532298 -0.017379457 0.50340325 0.07957872
0.46683913 -0.6173634 0.2672455 -0.63786185 -0.38496718 0.016709715 0.46727827 0.059301242
-0.18142301 0.06954942 -0.55870515 0.088100374 0.65319836 0.1144154 -0.48495826 -0.079676315
-0.6362239 0.010087232 -0.42854542 -0.24756943 -0.06325703 0.06514008 -0.65483284 0.07097381
-0.13794427 -0.19228138 -0.38600877 -0.77857304 -0.29254013 -0.2983508 0.4308354 -0.076739565
-0.46465242 0.08199986 0.8653493 -1.5311242 0.33567658 -0.2940505 0.3754575 -0.4270698
0.68849653 -1.0146991 -0.15784374 0.0031433199 0.45722345 -0.840013 -0.28833246 0.061816715
